face_attendance/assets/models/mobilefacenet_112x112_128d.tflite (tflite, 954232 bytes, 80 tensors)

MobileFaceNet/Logits/LinearConv1x1/BatchNorm/cond/FusedBatchNormV3_1 f4 [128]
000000 d7 e5 ba bf 68 fb 45 bf cb e8 1d bf 07 7d 6f be
       -1.4601392 -0.7733674 -0.6168334 -0.23387538
000010 89 ff b8 3e 3b e8 12 bf 4f c2 17 3e 69 a1 02 bf
       0.36132458 -0.57385606 0.14820217 -0.5102754
000020 69 fd 2d 3f 64 c8 50 be b6 a9 45 bd 81 88 ac be
       0.679648 -0.20388943 -0.048257552 -0.33697894
000030 22 13 18 3f 2f 1c 6f 3c 4d 06 9c 3e 56 ba 55 3f
       0.59404194 0.014594122 0.30473557 0.8348745
000040 a2 82 da bd 63 52 e7 bd 58 3e 52 3e 74 c1 66 bf
       -0.106694475 -0.11295011 0.20531595 -0.90138936
000050 9b fa 50 bd a9 d4 f7 bd 57 77 96 be 30 2d 85 be
       -0.051020246 -0.121011086 -0.29387924 -0.26011038
000060 e1 a9 2e 3f d4 fa 45 bf de 09 06 bf dd e7 5c 3f
       0.68227965 -0.7733586 -0.52358806 0.86291295
000070 37 16 88 bf 43 2f 8e be 3a d5 c4 be be 08 9b 3f
       -1.063178 -0.27770433 -0.3844393 1.2112043
000080 82 6c d5 3e 11 6e 72 bd e1 0d 6d bf 62 a5 56 bf
       0.41684347 -0.059187 -0.925993 -0.83846104
000090 fd a5 0e 3f 43 5f d5 be f6 57 c5 be 89 be 79 bf
       0.5572203 -0.4167424 -0.3854367 -0.9755636
0000a0 dc 05 1d 3e ba 91 87 3f 0f d4 36 3d 78 ff a3 3f
       0.15334266 1.0591347 0.04463583 1.2812338
0000b0 a7 ed 95 3e 67 d8 a9 be 5d d3 88 3e 01 0f 47 3e
       0.29282877 -0.33172914 0.26723757 0.19439317
0000c0 13 41 8e bf 5a ac 00 3f af d5 12 be 43 d1 82 bf
       -1.1113609 0.5026299 -0.14339326 -1.0220112
0000d0 81 09 83 3f b1 59 0a 3f 0d e4 c3 3e 00 24 27 bf
       1.0237275 0.5404311 0.38259926 -0.65289307
0000e0 a0 8a b0 3e 5e fb ba be 7b 7f ea 3e f9 ae c5 3f
       0.34480762 -0.36519903 0.45800385 1.5444022
0000f0 4b 1c ce 3f 36 7a bf be 35 f8 7b 3f 73 3a 32 bf
       1.6102384 -0.37397927 0.9842561 -0.69620436
000100 30 8b 0e 3f eb ef 3a be 82 a3 1e 3f 27 62 37 3f
       0.55681133 -0.18255584 0.61968243 0.71634144
000110 b5 57 12 be e7 9f 33 3e 9f 16 5e bf 5f e5 2b 3e
       -0.1429127 0.17541467 -0.8675327 0.16786717
000120 1c f5 5a 3e 8c be 7a 3f f9 a8 97 3f 13 ac 0e be
       0.21382564 0.97947 1.1848441 -0.13932829
000130 a8 3d 23 3f c3 92 ad 3e c2 12 bf be e3 58 20 3e
       0.63765955 0.33901033 -0.37319 0.15658908
000140 27 2a 14 3f 01 3a 18 3f 9a 19 82 3f 03 7d 6f be
       0.5787682 0.59463507 1.0164063 -0.23387532
000150 f5 fe e4 3e a2 7d f9 3e 9d d8 03 bf 06 eb ca 3f
       0.44725767 0.48728663 -0.515024 1.5852973
000160 53 e7 0f 40 e9 9f 2f 3f 29 09 d3 be 8b 5f 00 bf
       2.248494 0.6860338 -0.41217926 -0.50145787
000170 72 6b 2d be 96 50 ad be 66 70 30 3f 8f 8c d3 3e
       -0.16935518 -0.33850545 0.68921506 0.41318175
000180 14 dc 8b bf e6 df 02 3e dc bb 81 3d 87 27 63 3e
       -1.0926538 0.12780723 0.063346595 0.22183047
000190 c9 92 46 bf d6 f4 8c 3d 2e 05 5e be 7e 7f 35 3f
       -0.77567726 0.06882636 -0.21681663 0.7089766
0001a0 e2 d8 a2 bd ec c0 0c 3e 34 49 2e be 10 6b 39 bf
       -0.07951523 0.13745469 -0.17020112 -0.7242899
0001b0 a0 a1 08 bf cf e1 7e be af 28 10 bf 66 c7 8c be
       -0.5337162 -0.24890827 -0.5631208 -0.2749588
0001c0 18 bb 31 3f bb bb d3 bf 87 96 61 3c c5 0d 81 bf
       0.6942611 -1.6541666 0.013768799 -1.0082327
0001d0 83 7c 40 bd 49 1d 71 3e 4a c7 86 bd 8d eb a2 be
       -0.046993744 0.23546328 -0.0658098 -0.31820336
0001e0 75 cc bf bf d0 b6 c7 3e cf 05 ff be bd 41 76 bf
       -1.498427 0.39006662 -0.4980912 -0.9619406
0001f0 e9 0f d6 3d 72 ed 6b bf aa 5b b2 3e af 48 8b 3e
       0.10452253 -0.9215919 0.3483556 0.2720389

MobileFaceNet/Logits/Conv/BatchNorm/cond/FusedBatchNormV3_1 f4 [256]
000000 de a8 47 b5 d7 9f e7 34 92 0f 5f 35 0a 66 60 36
       -7.437901e-07 4.3143402e-07 8.309663e-07 3.3437996e-06
000010 3c c2 ce b4 e3 29 ad 35 b5 27 8b 35 e8 70 2a 35
       -3.8511814e-07 1.2901695e-06 1.0367863e-06 6.3494235e-07
000020 08 93 60 35 3f 6b 91 b5 df 48 2a b5 b6 11 1e b6
       8.366046e-07 -1.0834555e-06 -6.3435976e-07 -2.3554144e-06
000030 b0 ea 12 b2 76 2c 7d b4 e8 80 c5 b4 de 0c f4 34
       -8.55168e-09 -2.3578636e-07 -3.67879e-07 4.5457904e-07
000040 b2 d7 52 35 2c 31 0a b6 00 61 86 b3 10 0d 97 b3
       7.8544974e-07 -2.0592224e-06 -6.2575054e-08 -7.0338615e-08
000050 bb c6 e7 b5 88 9f f8 b4 3f b5 63 35 1b 8d 11 35
       -1.7268679e-06 -4.6309674e-07 8.482784e-07 5.4222045e-07
000060 b0 96 8a 33 12 04 3f b5 0e bb ac b4 11 42 d4 b5
       6.453536e-08 -7.115897e-07 -3.2173597e-07 -1.5814459e-06
000070 b7 6d ff 34 08 0c 00 35 64 3a b6 35 90 8e 54 b4
       4.757728e-07 4.7701224e-07 1.3577051e-06 -1.9795903e-07
000080 a6 c3 87 b5 98 78 96 35 6e d8 f6 b4 00 1b 73 b4
       -1.0115225e-06 1.1210968e-06 -4.5978544e-07 -2.2640961e-07
000090 63 12 84 b4 d5 56 ea 34 18 00 03 34 c5 ed a3 b5
       -2.4600294e-07 4.3649075e-07 1.220036e-07 -1.2213646e-06
0000a0 94 2c 54 35 01 7e d7 b5 0e 13 b9 b5 8f 0a 7b 35
       7.9041024e-07 -1.605542e-06 -1.378912e-06 9.352015e-07
0000b0 1f cf 64 b5 0c f0 2c b4 40 d8 a1 34 8e 5a 82 b5
       -8.523802e-07 -1.6106077e-07 3.014593e-07 -9.71211e-07
0000c0 46 37 69 b5 e9 8c 5e 35 5b 4b 83 35 9a e4 13 b5
       -8.68797e-07 8.2906496e-07 9.782192e-07 -5.5094426e-07
0000d0 dd 3a 22 35 19 ff 41 34 06 81 d5 34 d5 a9 03 35
       6.043536e-07 1.806733e-07 3.976822e-07 4.904844e-07
0000e0 79 31 82 b5 d0 c9 3e b5 d9 78 a5 b4 a4 32 8a b5
       -9.700153e-07 -7.107419e-07 -3.0821573e-07 -1.029654e-06
0000f0 19 5d c8 b4 e4 f2 1f 35 5b cd 40 b4 20 03 1b 35
       -3.732064e-07 5.958557e-07 -1.7956101e-07 5.7746547e-07
000100 41 91 31 34 86 3c c2 b5 ab 67 59 b4 84 97 39 b5
       1.6537253e-07 -1.4471741e-06 -2.0247414e-07 -6.9138355e-07
000110 c4 16 7a b5 71 3d bc 33 fa 86 41 35 fc 5c ba b4
       -9.3165386e-07 8.765608e-08 7.209452e-07 -3.4712855e-07
000120 b0 cf 4c b6 4f f6 23 35 14 b6 f4 33 7d 52 3a 34
       -3.051926e-06 6.108066e-07 1.1395255e-07 1.7352609e-07
000130 a3 1b 9c b4 2b 5c dd b4 9c 83 d5 b5 f2 36 15 35
       -2.9077373e-07 -4.123152e-07 -1.590804e-06 5.558678e-07
000140 ec 04 3b 35 dc 7c 13 35 92 23 67 35 36 59 47 35
       6.967009e-07 5.494346e-07 8.610597e-07 7.4263096e-07
000150 9a 14 24 35 32 d6 e7 34 42 29 0f b5 74 4f 0e 35
       6.112474e-07 4.318295e-07 -5.333169e-07 5.301474e-07
000160 a8 a3 a4 b4 6c e5 3a 34 d0 1e d9 b3 52 e6 9f b4
       -3.0666456e-07 1.7406063e-07 -1.0110455e-07 -2.9783638e-07
000170 78 48 cf b3 e3 62 9a b5 74 c0 97 b5 88 ec 0c b3
       -9.6523706e-08 -1.1502674e-06 -1.1306388e-06 -3.2811414e-08
000180 34 92 8e b3 5a e5 3c 35 02 2e cc b5 32 f0 a7 b5
       -6.6389845e-08 7.036921e-07 -1.5212574e-06 -1.2512376e-06
000190 91 1e ad 34 e4 30 59 b4 89 b2 8a b4 f9 8a 53 35
       3.2246e-07 -2.0227486e-07 -2.5834404e-07 7.8805857e-07
0001a0 e5 b4 02 35 b4 6a c2 34 08 75 55 b5 9c 76 1b b5
       4.869201e-07 3.6212953e-07 -7.9518986e-07 -5.79146e-07
0001b0 1b a1 37 34 7c 62 9a 35 b4 49 5c b3 ff e5 1a 35
       1.7101813e-07 1.1502557e-06 -5.1289774e-08 5.770416e-07
0001c0 2c 8a 3b b4 a5 b2 70 35 0a 40 59 35 64 0f 13 34
       -1.7465999e-07 8.966693e-07 8.093199e-07 1.3696041e-07
0001d0 7a d9 0e 34 f0 8c e3 b3 36 aa 8e 35 d1 79 02 b5
       1.3303898e-07 -1.05961476e-07 1.0629362e-06 -4.860604e-07
0001e0 af 16 19 b5 f4 db 39 35 ac 39 36 b5 56 1b ac b5
       -5.702995e-07 6.9237944e-07 -6.7884207e-07 -1.2822954e-06
0001f0 cc ac ca b4 d7 20 8c b5 5a 25 c1 b5 cf 7d 36 35
       -3.7751158e-07 -1.044037e-06 -1.4390491e-06 6.798336e-07
000200 b4 17 65 35 95 8b 5d b5 64 3d 20 b5 4b 56 f2 b4
       8.534364e-07 -8.2532034e-07 -5.969398e-07 -4.51388e-07
000210 70 7c f3 34 6a d7 07 b5 8f e8 aa 35 21 d5 07 35
       4.5352817e-07 -5.060489e-07 1.273367e-06 5.060156e-07
000220 8c 2a 8e 35 65 d5 c6 35 d8 75 61 b4 10 0a c2 35
       1.0592207e-06 1.4814256e-06 -2.0997629e-07 1.4457055e-06
000230 cb 53 b0 b5 e9 91 0f 36 f7 d4 c0 b4 e8 aa 8c b4
       -1.3137409e-06 2.1393591e-06 -3.591774e-07 -2.6201383e-07
000240 dc 9a 45 b5 47 e3 4a b5 cb 78 19 35 a7 1d 46 35
       -7.361357e-07 -7.5581596e-07 5.717272e-07 7.38039e-07
000250 d2 12 3d 35 eb 82 65 b5 65 4b 8d 35 23 5e cc 34
       7.0435374e-07 -8.549966e-07 1.0527261e-06 3.8066455e-07
000260 07 c2 d6 35 e0 66 1f 31 d6 5f 1e 36 94 21 64 35
       1.6000712e-06 2.3196023e-09 2.3599619e-06 8.498548e-07
000270 3c 8c 27 35 6b 80 95 35 5c c6 83 34 0b 45 7a b5
       6.2416416e-07 1.113874e-06 2.4544977e-07 -9.323273e-07
000280 38 3d a7 b5 18 ec b6 33 01 c7 f3 b4 5d ec 1d 35
       -1.2460287e-06 8.5179806e-08 -4.5407072e-07 5.883101e-07
000290 7c fa 5e b4 04 e1 df b2 58 76 bc 35 ae 03 6a b5
       -2.0766487e-07 -2.6062942e-08 1.4041534e-06 -8.717715e-07
0002a0 9c 4d 95 35 c9 ae ab b4 bb 7b 45 b5 21 b4 ec b4
       1.1123952e-06 -3.1978405e-07 -7.356827e-07 -4.4089487e-07
0002b0 f0 a7 d8 b5 e6 6b 80 b4 87 3b 75 b5 82 29 13 35
       -1.614213e-06 -2.3920364e-07 -9.1356236e-07 5.482217e-07
0002c0 ac d2 98 b5 f9 05 92 35 e2 ad 9a 34 41 44 f4 b5
       -1.1386196e-06 1.0879586e-06 2.8811252e-07 -1.8199281e-06
0002d0 ac 2a a3 35 72 3f 69 b4 74 06 45 b5 8a 11 9e 35
       1.2156866e-06 -2.1722897e-07 -7.339761e-07 1.1777022e-06
0002e0 e7 2a f6 b5 22 4b af b5 20 10 7f 35 26 ef 0c 34
       -1.8340914e-06 -1.3060383e-06 9.501837e-07 1.3125518e-07
0002f0 05 a5 1d 35 6b 9f 9b 35 67 ac 4d b5 94 d4 da 35
       5.872719e-07 1.1594797e-06 -7.661933e-07 1.6304134e-06
000300 85 2a 52 b5 0d 0e 80 35 72 23 0a b5 5c 0b 6e b5
       -7.829297e-07 9.540832e-07 -5.1460586e-07 -8.867844e-07
000310 2f 99 1f 35 a2 c2 93 35 70 19 66 35 a0 6e ef 35
       5.945503e-07 1.1008999e-06 8.5718693e-07 1.7839084e-06
000320 f8 9a 48 b4 56 97 9c b5 88 ba aa 33 cd 19 91 b5
       -1.8682829e-07 -1.166695e-06 7.950172e-08 -1.0810851e-06
000330 c0 d1 4e 33 b6 52 f1 b3 69 9c fe 34 09 a2 b0 b5
       4.815388e-08 -1.1237482e-07 4.742499e-07 -1.316018e-06
000340 9a ca d8 34 e4 51 3c 35 99 00 8b 35 9e 50 31 b5
       4.0380547e-07 7.0154624e-07 1.0356481e-06 -6.605495e-07
000350 47 ad a6 b5 1c ca 3c 35 c8 80 9c b4 ac 87 e5 33
       -1.2418394e-06 7.0329565e-07 -2.9150965e-07 1.0688322e-07
000360 5a 14 2e b5 7e 4e ef b5 ca c5 b2 b4 d4 c7 f1 35
       -6.4849667e-07 -1.7829732e-06 -3.3298994e-07 1.8014057e-06
000370 ca 96 9a 35 48 1a ff b5 4d 06 6c b4 6e 50 03 36
       1.151778e-06 -1.9006629e-06 -2.1981505e-07 1.9567337e-06
000380 0e 34 bc 34 fb 00 4a b5 77 57 f7 b5 3e 4a 47 34
       3.5055604e-07 -7.525229e-07 -1.842839e-06 1.8560328e-07
000390 c6 e0 17 b5 54 5b e1 34 d9 d1 62 b5 04 c8 3f 35
       -5.657897e-07 4.1975966e-07 -8.449693e-07 7.1444106e-07
0003a0 bc db 99 35 94 50 b3 b5 e4 91 25 b6 8e 14 0a 34
       1.146334e-06 -1.3359991e-06 -2.4671835e-06 1.2859729e-07
0003b0 b5 10 cd b5 c4 f6 a1 35 71 e3 9a b4 32 bf b3 b5
       -1.5278553e-06 1.2067253e-06 -2.885022e-07 -1.3392184e-06
0003c0 db 79 b5 b5 55 87 b3 b5 6e a0 26 b5 af 56 b4 b4
       -1.3521015e-06 -1.3375926e-06 -6.2073275e-07 -3.3590683e-07
0003d0 29 de 10 b4 04 e5 9b b5 9c f2 af 34 f7 0f 07 b5
       -1.3491866e-07 -1.1615052e-06 3.2772812e-07 -5.031465e-07
0003e0 36 82 d9 35 16 ad 4b b4 cc 71 b1 34 aa 2a 5a b5
       1.6205656e-06 -1.8968817e-07 3.3051617e-07 -8.1273413e-07
0003f0 25 2e 7a 35 8c c2 3e b5 40 77 23 b3 24 15 2e 35
       9.3199407e-07 -7.106362e-07 -3.8059852e-08 6.4850815e-07

MobileFaceNet/MobileFaceNet/Conv2d_7/BatchNorm/cond/FusedBatchNormV3_1 f4 [256]
000000 8c 33 15 3e 69 05 38 40 fd 42 51 bf 87 e0 4a 3f
       0.14570445 2.8753302 -0.8174284 0.7924885
000010 41 a3 37 3f 26 26 f7 be cc 5f e0 3d 76 73 84 3f
       0.7173348 -0.48271292 0.10955772 1.0347736
000020 49 9f 67 3f 8f 69 f0 3e bb 73 55 3f 3e 0e e5 3e
       0.90477425 0.46955535 0.83379716 0.44737428
000030 96 eb fa bd be e9 5d 3f f6 51 38 3f dd 2f 81 3f
       -0.12251966 0.8668479 0.7200006 1.0092732
000040 d9 86 87 3f c7 ab a7 3f 22 da 82 3f a2 4b 6c bf
       1.0588027 1.3099297 1.0222819 -0.92302907
000050 d8 16 72 be cf 86 18 3f 09 13 26 3f f0 8f 59 3e
       -0.23641527 0.595807 0.64872795 0.21246314
000060 8b d0 d5 bf 4a 5c 34 bb b5 ec 21 3f da fb 09 3f
       -1.6704267 -0.002752083 0.6325181 0.5389992
000070 ba 90 24 40 fd fd 58 3f 8f 95 2d 3f dd f3 b0 3f
       2.5713334 0.84762555 0.67806333 1.3824421
000080 a8 29 a9 3f 7e f2 29 3f d8 53 e3 be 86 d3 ca 3e
       1.3215837 0.6638564 -0.44399905 0.39614505
000090 20 dd 13 3f 44 55 9e 3f 1b 51 fd bf f4 51 e5 3e
       0.57759285 1.2369771 -1.9790376 0.44789088
0000a0 28 33 36 be 88 01 4d 3f 0f e1 e6 3d 6f d2 95 3f
       -0.17792952 0.8008046 0.11273395 1.1704844
0000b0 c1 a9 1e 3f c8 e5 a7 3f 77 30 0d 3f c2 b6 4e 3e
       0.61977774 1.3116999 0.55152076 0.20186904
0000c0 ce ec 30 3f e4 6a cc 3e d1 ad d9 3f ed df fe 3e
       0.69111335 0.399253 1.700617 0.49780217
0000d0 3f 1c 09 3f 7e ce 7b 3f 2e dc 97 be 27 2a b4 3f
       0.53558725 0.9836196 -0.2966017 1.4075364
0000e0 45 ae b1 3f 67 96 18 bf 41 f3 a5 3f 96 26 d4 3d
       1.3881308 -0.59604496 1.296486 0.10358922
0000f0 66 12 b8 3f 75 15 ab 3e f5 04 f3 3e ca ec 09 bf
       1.4380615 0.33414808 0.4746472 -0.53876936
000100 a2 be 69 3d 59 41 ec be 8b 79 40 be f4 4a 31 bf
       0.057066567 -0.46143606 -0.18796365 -0.69254994
000110 cc c7 98 3f 0c 87 37 3f 47 9d fc be f7 b9 35 3e
       1.1935973 0.7169044 -0.49338743 0.17746721
000120 3a cc bd 3f 6a 9d 45 3f ec 38 c6 3f 1a 97 ae be
       1.482795 0.7719332 1.5486121 -0.34099656
000130 fb 38 57 3f 0d 9b 2c 40 a1 3b 51 3f be ec bf 3f
       0.8407132 2.6969635 0.8173161 1.4994123
000140 6e 6b 8c 3f ab 2e 29 3f 8d 19 71 be 38 2b 4b 3f
       1.0970285 0.66086835 -0.23544903 0.7936282
000150 c7 c0 39 bf 0e 12 cf 3f 78 49 50 3f 5f 7c 09 40
       -0.7255978 1.6177385 0.81362104 2.148216
000160 c3 ad 15 40 b8 d3 cd 3f 6a 13 8f 3e c9 a5 92 3f
       2.3387306 1.6080236 0.279445 1.1456844
000170 34 68 56 3f 91 7c 3d 3f 37 a7 55 3f 55 21 e8 be
       0.8375275 0.740182 0.83458275 -0.4533793
000180 bc 17 31 bf a2 2f 66 3f c0 2f 17 40 e3 9d 06 3f
       -0.6917684 0.8991643 2.3622894 0.52584666
000190 6a 49 a7 3f b6 96 4c bf fd cd 6d 3f f3 57 e8 3f
       1.3069279 -0.79917467 0.9289244 1.815184
0001a0 3e 81 32 40 65 fd 01 3f 80 c9 da bd 2d af 80 bf
       2.7891383 0.50777274 -0.10682964 -1.005346
0001b0 da 4f c5 be 21 eb 25 3f 6a 78 5e 3f 03 38 1a 3f
       -0.38537484 0.64811903 0.8690249 0.6024172
0001c0 df 68 66 3f 4d ef aa 3e 8e cd 6c 3f dc ff b6 bf
       0.9000377 0.33385697 0.9250115 -1.4296832
0001d0 83 24 f2 3f ea 3a de 3d 56 c9 75 3f 96 17 45 3f
       1.8917392 0.10851081 0.9601034 0.76989114
0001e0 1b 05 10 40 4d 26 93 3f 81 64 ac 3f 7b b9 85 3f
       2.2503116 1.1496063 1.3468171 1.0447229
0001f0 3f 4a df 3f 1e a9 5e be e5 af 59 bd 5b d0 f0 3e
       1.7444533 -0.217442 -0.05314626 0.47033963
000200 60 2f 35 bf 7d b6 16 3f 34 71 86 3f 5f 7e 00 40
       -0.70775414 0.58872205 1.0503297 2.007713
000210 79 42 4c 3f fa 39 bb 3d 82 3c fa 3f cb bf 6c 3e
       0.7978893 0.091419175 1.9549716 0.23120038
000220 78 bc 50 40 94 60 3e 40 3f 52 c6 3f a5 c0 35 3f
       3.2615032 2.9746447 1.549385 0.7099708
000230 de da c9 3f de 96 42 3f 15 d6 63 3f 7e f8 c9 bf
       1.5769918 0.76011455 0.8899854 -1.5778959
000240 f2 cb 91 bf 16 cc 43 3f 45 e6 6a 3e e8 72 85 3f
       -1.1390364 0.76483285 0.22939403 1.0425692
000250 2a d6 7d 3f 00 2a f7 3e 0a a9 58 3f cf 4c 70 3f
       0.99154913 0.4827423 0.84632933 0.938672
000260 13 61 ad 3f 64 d9 be 3f 76 29 86 bf 52 4d 1b 3f
       1.354525 1.4910092 -1.0481403 0.60664856
000270 cb f0 b6 3e 11 02 e7 3e 10 f8 d0 3d 16 a9 28 3f
       0.35730585 0.45118764 0.10203564 0.65883005
000280 cb 93 51 bf 4e 4e a9 3f b8 92 1b bf 82 d0 3e 40
       -0.8186614 1.3227022 -0.6077075 2.9814763
000290 41 0d 46 3f 0a ff 4f 3f 88 10 5c bf 76 2b 8b bf
       0.77363974 0.81248534 -0.85962725 -1.0872638
0002a0 a5 88 1e bd 7b b0 14 bd 33 0e 68 3f 83 e0 d9 3e
       -0.038704533 -0.036301117 0.90646666 0.425541
0002b0 8e a6 63 3e 21 5c 1d 40 41 3a 2b 3f f8 1a 37 3f
       0.22231504 2.458748 0.66885763 0.71525526
0002c0 2a a2 f6 3e 56 53 26 bf 10 9a 90 3e 17 f8 79 3f
       0.48170596 -0.6497091 0.2824254 0.9764418
0002d0 02 81 bb 3f 18 db 1e 3f fe 65 5d 3f 0f 8e 31 3f
       1.4648745 0.6205306 0.8648375 0.6935739
0002e0 a9 57 8e 3e de 1e 23 3f 49 d3 94 3f ea 12 30 3f
       0.27801254 0.63718975 1.1626979 0.6877886
0002f0 47 44 4e 3e 65 43 44 3f 61 2a 87 3f 79 ec 14 3f
       0.20143233 0.76665336 1.0559808 0.5817333
000300 c7 ad 94 3f 0c e9 44 3f 78 7f 22 be d4 88 83 3f
       1.1615533 0.769181 -0.15868938 1.0276132
000310 de ce 67 3f 3a fe 1a 3f 46 34 e8 3e 29 e5 92 3e
       0.9055003 0.6054417 0.4535238 0.2869046
000320 23 9b 46 3e bd d5 e4 3f 3a 46 e1 3f f0 93 3c 3e
       0.19395117 1.7877728 1.7599556 0.18415809
000330 4d c6 58 40 1a dd 52 3f 26 55 1d bf fb c7 69 3f
       3.3871033 0.82368624 -0.6145805 0.9132077
000340 62 fa 2c 3f 56 6c 8a 3e 23 ed b0 3f 9a 4a 7e be
       0.67569554 0.2703578 1.3822368 -0.24833146
000350 78 a4 ad bf 9f 3e 5b 3f 6d 9c 17 40 af 3d e6 be
       -1.3565817 0.8564243 2.3689225 -0.44968936
000360 23 71 0e 40 e5 59 1b 3f dc 96 ff 3e 74 1e 4d 3f
       2.2256553 0.60684043 0.49919784 0.8012459
000370 46 81 55 3e f9 c2 8d 3f 3c 0f a5 3c 67 d3 9e bd
       0.20850095 1.1075126 0.020148866 -0.077551655
000380 90 0a 6e bf 28 3b ad 3f 2d b7 e0 3f 0a 17 4f 3f
       -0.9298487 1.3533678 1.7555901 0.8089453
000390 9f c7 e8 3e 82 c9 17 3f 89 e1 61 3f 1a 26 1f 40
       0.454648 0.5929185 0.88234764 2.4867005
0003a0 e9 46 7e bf 0f 57 5f 3f 8b 15 57 3f 87 49 a2 be
       -0.9932695 0.87242216 0.84017247 -0.31696722
0003b0 e5 dd 95 3e 23 12 01 bf 8e 1e 2c 40 a4 ac e4 3d
       0.29270855 -0.504183 2.689365 0.11165741
0003c0 a1 46 00 3f f7 ee 7d 3e ec 96 a0 3e 6a 0d 06 bf
       0.5010777 0.24798189 0.31365144 -0.5236422
0003d0 59 93 c0 3f bd c2 bb be 7a ce ea 3e b0 46 8f 3f
       1.5044967 -0.3667201 0.45860654 1.1193447
0003e0 db 97 01 40 48 f5 37 3f f3 43 52 3f 46 4f 68 3e
       2.0248935 0.71858644 0.8213493 0.2268649
0003f0 b1 6d 43 3f 98 03 37 3f 27 bc 68 3f 6d 7a 53 3f
       0.7633925 0.7148986 0.909121 0.8260868

MobileFaceNet/MobileFaceNet/Conv2d_6_InvResBlock_1/Conv_1/BatchNorm/cond/FusedBatchNormV3_1 f4 [128]
000000 f8 20 30 c0 1d 83 7e 40 d9 cc 40 40 68 aa 77 bf
       -2.7520123 3.9767525 3.012503 -0.96744394
000010 a5 08 9c c0 37 74 37 c0 f4 94 0f bf a6 0b ff bf
       -4.8760552 -2.8664682 -0.5608666 -1.992543
000020 d0 7d b5 c0 aa 0b 40 3f 70 01 b6 bf 1d 31 38 3f
       -5.671608 0.750178 -1.4219189 0.7194994
000030 52 f4 64 c0 21 45 f0 be 31 dc b6 bf 0c d2 12 c0
       -3.5774121 -0.4692774 -1.4285947 -2.2940702
000040 5c 20 67 bf 53 96 f3 3f 14 eb 78 3f 02 88 65 3f
       -0.9028375 1.903025 0.972337 0.89660656
000050 b2 d4 8d 3d 56 0f 82 3f 1b 14 2d 40 b7 c5 6b be
       0.06925334 1.016093 2.7043521 -0.23024641
000060 5a be 49 40 69 3a 45 bf c9 01 50 3d a6 96 f6 3c
       3.1522431 -0.7704225 0.050782952 0.030101132
000070 f3 eb 08 be c7 73 16 3c c0 15 2a bf 21 ff fc bb
       -0.13371257 0.009182877 -0.6643944 -0.0077208434
000080 e3 1c 84 be 4e 6c c7 c0 66 bb ec 3f 94 1d 38 3f
       -0.2580329 -6.231971 1.849469 0.7192013
000090 bc fa e1 bf f4 86 03 c0 7a a1 ea bf ac b5 d1 bf
       -1.7654643 -2.055112 -1.8330529 -1.6383567
0000a0 26 7c 09 c0 12 14 83 3b 36 2f 00 be 29 e3 0d 40
       -2.1482024 0.0040001953 -0.1251801 2.2169898
0000b0 f4 18 c0 3e 25 af 76 40 05 ad df bf fd d7 bf bf
       0.37519038 3.85444 -1.7474676 -1.4987789
0000c0 c6 9c 2a 3d 32 8e de 40 a9 18 37 3e 49 82 75 bf
       0.041653417 6.954858 0.17880501 -0.95901924
0000d0 11 b4 f5 3f b2 c5 b9 bf 92 07 07 40 35 c9 d1 3f
       1.9195577 -1.4513457 2.109837 1.6389529
0000e0 42 f4 8e 3f d1 4b 8f bf e3 18 d2 bf f7 f6 fb be
       1.1168292 -1.1195012 -1.6413845 -0.49211857
0000f0 07 99 6a 40 b9 a6 ba 3e d8 9f 03 41 3c a2 33 3f
       3.66559 0.36455324 8.226524 0.70169425
000100 f4 68 07 c0 01 53 3f 3f fc 57 e6 3e 92 67 9f be
       -2.1157808 0.7473603 0.44989002 -0.31133705
000110 75 cd 65 3f bb c9 04 bf 63 09 4f c0 5e 0e 01 3d
       0.8976663 -0.51870316 -3.234948 0.031507842
000120 aa 02 10 be 95 d2 41 c0 1b f6 9f c0 29 11 49 40
       -0.14063516 -3.028478 -4.998792 3.1416724
000130 c4 21 6c 3f c0 50 7a 3e ed e3 b4 3e cf 93 7f 40
       0.9223902 0.24444866 0.35330144 3.9933965
000140 da 8d 82 3d f4 d7 e3 be fb a3 2c 3d dd e9 8f be
       0.06374712 -0.44500697 0.04214857 -0.2810811
000150 d1 83 48 40 53 fc ce 3f c7 6b bb 3f c4 e9 1e 40
       3.1330454 1.6170753 1.4642266 2.483018
000160 5b a0 8b c0 d6 e3 80 c0 e4 fe d2 be fc 5f 33 40
       -4.3633246 -4.027812 -0.4121009 2.8027334
000170 25 59 00 c0 00 21 72 bf 3d ec df bf a6 cd cd 3f
       -2.005441 -0.94581604 -1.7493969 1.6078384
000180 eb e1 9d bf f7 1e 8d 40 d1 51 ad c0 fd 1d ec be
       -1.233457 4.41003 -5.4162374 -0.4611663
000190 fb 38 5a 3e 9e 63 6b c0 af e1 1d 40 a1 31 a5 bd
       0.21310799 -3.6779552 2.4668996 -0.080661066
0001a0 85 64 e8 3f 2a e5 de be 65 20 65 3f 22 f4 4f 3e
       1.8155676 -0.43534213 0.89502555 0.20307973
0001b0 d3 9c da bf 53 42 4b bf 8d 3e fb bd b0 39 98 bf
       -1.7079109 -0.7939808 -0.1226779 -1.1892605
0001c0 2f aa f9 3f 2f 17 00 bd b8 96 c4 3e 4d b5 ca 3f
       1.9505061 -0.03127211 0.3839624 1.5836579
0001d0 31 4b 0d 40 d7 53 19 40 9a 54 53 40 56 99 90 bf
       2.2077143 2.3957422 3.3020387 -1.1296794
0001e0 1b 9d e1 3d e9 1a 88 bf 22 ac 4a bf e5 12 76 be
       0.110162936 -1.0633212 -0.79168904 -0.24030645
0001f0 87 02 cb bf 7c 2b 45 3f dd f5 aa c0 41 ea dd 3b
       -1.5860146 0.77019477 -5.3425126 0.00677231

MobileFaceNet/MobileFaceNet/Conv2d_6_InvResBlock_1/Conv/BatchNorm/cond/FusedBatchNormV3_1 f4 [256]
000000 6f f8 3a be 69 78 12 3f d0 2c 51 bf 08 6a 73 be
       -0.18258832 0.5721498 -0.81709003 -0.23770916
000010 37 2d 1f bf 7d 02 01 3e 60 aa 04 bf 3a 4a 2f 3d
       -0.6217837 0.12598605 -0.5182247 0.042795397
000020 9b c8 57 be ea 8f f6 bf 40 07 63 bb ae 40 43 bf
       -0.21072619 -1.9262669 -0.0034641773 -0.7627057
000030 aa 5d 9a bf 0b a3 02 be 0e 22 8e bf ae b4 9a bf
       -1.2059834 -0.12757508 -1.1104143 -1.2086389
000040 c5 b0 e8 be e6 3d 86 bf 3f 06 c2 3e 0e 6f b9 bf
       -0.45447364 -1.048764 0.3789539 -1.4487016
000050 1d ee 03 3f 0b a7 e8 bf e8 fe 34 3e 27 aa 76 3f
       0.5153521 -1.8175977 0.17675364 0.9635338
000060 8c 2f b6 bf 7b 79 31 3f 33 bf fb bf c8 56 3e bf
       -1.423326 0.6932599 -1.9667724 -0.7435117
000070 fc df a9 3f f4 67 81 bf 1e 98 23 3e c1 80 22 c0
       1.327148 -1.0109849 0.15975997 -2.5391085
000080 52 24 a7 be 51 0d 0e bf e2 18 a8 be 6c 9f a9 bf
       -0.32644898 -0.5548907 -0.32831484 -1.3251777
000090 10 71 46 bf d8 cd 80 bf a9 24 d7 3c 8b fd 2a 3e
       -0.7751627 -1.0062819 0.026262598 0.16698281
0000a0 97 3b 54 bf 35 ef 3d bf 92 6e d6 bf 51 a1 3d 3f
       -0.82903427 -0.74193126 -1.6752493 0.74074274
0000b0 e6 47 23 be 5d 47 45 bf c8 46 8b bf 3e c7 bc be
       -0.15945396 -0.77062017 -1.0880976 -0.3687076
0000c0 0f 22 e3 bf 30 ed 8d be b6 f6 78 bf 2f d2 c4 bf
       -1.7744769 -0.27720022 -0.9725145 -1.5376643
0000d0 d4 15 00 bf 73 db 35 bf 11 ef d2 3b f3 a0 3a be
       -0.5003331 -0.7103798 0.0064371903 -0.1822546
0000e0 e4 28 8b 3e c9 68 db 3d 03 b5 24 bf a5 15 18 3d
       0.27179635 0.107133456 -0.643387 0.037130017
0000f0 3c 99 a3 3f 8c 02 5e bf d8 71 00 bf 39 54 4d c0
       1.2781138 -0.86722636 -0.5017371 -3.2082655
000100 2a 61 31 c0 24 c1 ba bf 8e 11 fd 3d f6 62 2e bf
       -2.7715554 -1.4590192 0.12356864 -0.6811975
000110 b0 5a 5a bf a8 aa d2 3d 20 db c0 bf f9 47 a7 3e
       -0.8529463 0.10286456 -1.5066872 0.32672098
000120 3e 32 8f 3e 8e ed b4 bd 3d f8 d9 bd ed 21 f8 3e
       0.2796802 -0.088343725 -0.10643051 0.48463383
000130 d7 00 ba bf fd d3 11 c0 bb 42 b3 3e f3 36 89 be
       -1.4531506 -2.2785637 0.3501185 -0.26799735
000140 2c d0 b3 3d 7e 8b ab 3d ef 72 4f 3f 14 2d 14 bf
       0.0877994 0.083762154 0.8103475 -0.57881284
000150 5c 1d 9a bf 7b 31 9a bf 6a 2d 0b 38 fe 78 27 3e
       -1.204021 -1.204635 3.3182478e-05 0.16354749
000160 77 55 74 be 26 05 d4 bf 4d 9c 69 be 60 6e f6 3e
       -0.23860727 -1.6564071 -0.2281353 0.48131084
000170 39 e1 8a bd 09 0b 43 3d ff 68 a7 3e 73 88 cc 3d
       -0.06781239 0.047617946 0.32697293 0.09986963
000180 b4 b5 db bf 5d e6 a6 bf f5 da b6 be 78 cd e3 3f
       -1.7164826 -1.3039051 -0.35713926 1.7797079
000190 72 f1 ee bf 83 05 3a bf 9b 91 5d 3f c8 d3 de bc
       -1.8667433 -0.7266466 0.865503 -0.027200595
0001a0 db 97 2c be 9c 0d ad be 1a 67 ef bf d8 26 e1 bf
       -0.16854803 -0.33799446 -1.8703339 -1.7589979
0001b0 f7 5d b9 bc 3d c3 63 3f 1b 24 00 bf e9 53 9c bf
       -0.022627814 0.88969785 -0.5005509 -1.2213107
0001c0 0c b8 13 be fb 68 b6 bd 77 c8 d3 be b4 6b b7 bf
       -0.14425677 -0.08906742 -0.4136388 -1.4329743
0001d0 b8 ce 0a c0 69 ae 13 c0 85 39 26 bf 90 b8 87 bf
       -2.168867 -2.3075202 -0.6493152 -1.0603199
0001e0 ff 6c 3e bf 3b 7f b2 bd 0c b8 cb bd 55 d6 bb bf
       -0.74385065 -0.087156735 -0.099472135 -1.4674784
0001f0 83 c8 b5 be ab 40 87 bf 05 99 ca 3c 2d 0c 6a bd
       -0.3550454 -1.056661 0.024731169 -0.057140518
000200 a6 83 e4 3d 1c 41 5c c0 58 e8 c7 bf c0 17 b6 bf
       0.111579224 -3.441474 -1.5617781 -1.4225998
000210 a0 16 c6 bf 29 53 e6 bf 2d ca 18 bf 10 76 10 bf
       -1.5475655 -1.7994128 -0.59683496 -0.5643015
000220 43 df 63 bf 6a 4f d1 3f 20 40 be 3e 7f 3b c2 3f
       -0.89012545 1.635236 0.37158298 1.5174407
000230 70 33 2f bf d6 20 4f bf 0a 4b aa bd 6d 01 79 3f
       -0.6843786 -0.8090948 -0.08315094 0.972678
000240 ba c9 a0 be 69 c7 2b 3d 72 cb e2 be 06 7a 3c bd
       -0.31403905 0.04193822 -0.4429584 -0.046014808
000250 64 ae bd 3e 7d 34 9c bf 27 34 43 bd d3 41 a7 be
       0.37047112 -1.2203518 -0.04765716 -0.32667407
000260 b3 f5 0a bf f1 cc fc 3d a0 fd 60 3f 44 9e 99 bf
       -0.5428116 0.12343777 0.87887 -1.2001424
000270 8d 4c 13 bf 4c a2 e6 bc 65 f6 aa 3f 31 cd 54 bf
       -0.5753868 -0.028153561 1.3356444 -0.831256
000280 c0 65 20 3c 85 fa 5e 3e 88 af 94 be 2d 5f 71 bf
       0.009789884 0.21775253 -0.2904017 -0.9428585
000290 ea 6a c2 be 65 6f 0f bf 4c e4 8a 3e ec 2e f2 3f
       -0.37972194 -0.5602935 0.27127302 1.892057
0002a0 65 8d 5f 3e 34 cd 14 3f d6 18 03 3d 42 49 87 be
       0.21831281 0.58125615 0.032006107 -0.2642308
0002b0 f1 d3 3f bf d6 ee a5 be a1 26 2f 3e 05 49 24 3e
       -0.7493277 -0.3240878 0.1710458 0.1604348
0002c0 ae e2 cd be df 52 e6 bf 41 0a 01 bf b8 1f 77 3d
       -0.40212005 -1.799404 -0.5040627 0.060332984
0002d0 2e 6f a8 3f 76 40 cd 3d 7a 35 9b 3f 92 f1 63 bf
       1.3158929 0.100220606 1.2125695 -0.8904048
0002e0 a4 ec 84 be 8b cf 94 bf a9 a0 b8 3e 5e dc f0 bf
       -0.25961792 -1.1625837 0.36060074 -1.8817251
0002f0 15 72 0c c0 51 c7 e1 3e ae 11 13 3f b0 a6 9b bb
       -2.194463 0.4409738 0.5744885 -0.0047500953
000300 9a 2f 8d be 68 da 7c bd 6f 98 cb bf 7a 97 04 bf
       -0.2757538 -0.061731726 -1.5905894 -0.51793635
000310 4e 12 4f bf 1d 95 0c c0 bf 54 8f 3f f4 a9 23 3f
       -0.80887306 -2.1966012 1.1197737 0.639312
000320 72 25 16 be c2 59 81 bf c0 f7 09 bf 6b d1 42 bf
       -0.14662722 -1.0105517 -0.5389366 -0.76100796
000330 c2 66 47 c0 fe 1c 36 c0 32 be c1 bd 97 e8 ec bb
       -3.1156468 -2.8455195 -0.09460105 -0.0072298753
000340 94 99 19 c0 71 8c a3 be 8d 6f 1a c0 e3 b7 ec bd
       -2.3999987 -0.31943086 -2.4130585 -0.11558511
000350 29 d3 48 3f 4f d5 b5 bc ba 63 83 be de 7d e8 3e
       0.78447205 -0.02219644 -0.25662023 0.4540853
000360 53 a9 be bb 71 2d eb be 88 f5 77 bf 04 21 71 3e
       -0.005818525 -0.45933107 -0.96859026 0.2354775
000370 8b 04 b5 be c3 62 90 3f cf 4e 66 3c c6 c3 53 3f
       -0.3535503 1.128014 0.014056875 0.827206
000380 02 84 0f c0 fd 6d 02 3e 03 47 c3 be 31 cf a9 bf
       -2.242432 0.1273727 -0.38140115 -1.3266355
000390 50 cc a0 be af 53 91 bc ec d1 43 3f 29 75 84 be
       -0.31405878 -0.017740099 0.7649219 -0.25870636
0003a0 19 55 04 c0 8e 68 16 c0 5f 85 c3 bd 6a da 19 be
       -2.067694 -2.3501315 -0.09546923 -0.15024725
0003b0 36 2c dc bf a5 6d 0f bf c9 f6 d7 bf 52 59 1f 3f
       -1.7200992 -0.5602668 -1.6872188 0.62245667
0003c0 4a 66 9a bf 89 62 47 c0 94 b2 9a 3f a4 17 21 be
       -1.2062466 -3.115389 1.2085748 -0.15731674
0003d0 88 ad ce bf 19 f6 18 c0 e0 e0 f0 bf 59 8c 21 c0
       -1.6146708 -2.3900206 -1.8818626 -2.5241911
0003e0 b2 c0 8d 3f 1f 61 97 be 51 20 73 be f4 e2 d2 3e
       1.1074431 -0.29566285 -0.23742796 0.41188776
0003f0 aa 27 1a bf f1 55 1e be ac 58 39 bf db 56 db 3f
       -0.6021677 -0.15462472 -0.7240093 1.7135881

MobileFaceNet/MobileFaceNet/Conv2d_6_InvResBlock_0/Conv_1/BatchNorm/cond/FusedBatchNormV3_1 f4 [128]
000000 b5 0f 95 bd de c3 23 40 6c e9 4a 3f 3d ca 50 3f
       -0.072783865 2.5588298 0.79262424 0.8155859
000010 96 02 fc 3e 89 26 f8 bf 57 ad c6 3d 1c 83 ae bf
       0.49220723 -1.938676 0.09701031 -1.3633761
000020 3e fc 65 c0 4d fe 29 40 b6 c8 de be fb e0 35 bf
       -3.5935206 2.6561463 -0.43512505 -0.7104642
000030 9f f3 a6 3f e3 71 a8 3f 8d 2f 20 40 8c 98 09 40
       1.3043097 1.3159755 2.5029023 2.1499357
000040 29 fe cf 3e 88 08 c1 bf 59 ef 06 40 57 19 d9 3b
       0.40623596 -1.5080729 2.1083586 0.006625335
000050 97 57 64 bf ef f4 c4 bd b9 6b b8 c0 ff e2 8b bf
       -0.8919615 -0.0961703 -5.7631497 -1.0928649
000060 22 7e 97 40 8b 9b 22 c0 2b a1 02 bf 88 76 55 3e
       4.734147 -2.5407436 -0.5102717 0.20845997
000070 73 58 2c bf 42 55 1c 40 28 d6 3d 3f c8 1e 91 3c
       -0.6732246 2.4427037 0.741549 0.017714873
000080 21 07 af bf 4d c8 52 3f 8a ed 3a 3e c3 5e 49 40
       -1.367405 0.82336885 0.18254676 3.1464088
000090 ab 68 f7 3d df fb b4 c0 1c 23 de be d2 62 95 c0
       0.12080511 -5.655746 -0.4338616 -4.668313
0000a0 6f 3d 55 c0 37 00 9b bd 0c f3 c8 be 0e dd 80 3f
       -3.3318746 -0.075684 -0.3924793 1.006746
0000b0 1f 1f 58 bf af 0f fb be 7d 3d aa 3e 71 be 9a 3e
       -0.8442249 -0.49035403 0.33250037 0.3022342
0000c0 e0 20 ae 3d 5a 47 bf bf 94 a7 9d be 3b f3 b0 bc
       0.08502364 -1.494365 -0.30791914 -0.021600356
0000d0 a6 92 1c bf 7c a7 8d bf 77 d3 92 40 1e 97 46 40
       -0.6116127 -1.1066737 4.5883136 3.1029735
0000e0 a8 d3 96 3f bc d8 1c 3f d3 b1 94 bf d6 d9 17 3e
       1.1783342 0.6126821 -1.1616768 0.14829192
0000f0 27 1e 58 3f b2 f9 86 3e 66 01 93 3e 4a 3c b6 be
       0.8442101 0.26362377 0.28712004 -0.35592872
000100 d1 08 76 bf a8 aa 1b be 03 ac 28 bf 6c f4 00 c0
       -0.961072 -0.15201819 -0.6588747 -2.0149183
000110 09 b3 e4 3e ad 5c 51 c0 1a 75 88 c0 8a b5 05 40
       0.44667843 -3.2712815 -4.2642946 2.0892053
000120 90 88 1f bf 2c 93 a7 bf 86 af 48 c0 4c c8 d6 3e
       -0.6231775 -1.3091788 -3.135713 0.4194969
000130 5d 5a 10 bf 92 08 98 bf 3f f8 46 be 0b 5c 59 3f
       -0.56387883 -1.1877615 -0.19430636 0.8490607
000140 b0 b5 a2 c0 6c 35 ff be 41 cd 40 3f 8f be 6a 3f
       -5.0846786 -0.49845445 0.7531319 0.9169702
000150 42 a9 12 3f 44 bc d4 40 d2 b0 36 40 64 33 9e bf
       0.57289517 6.6479816 2.8545423 -1.2359433
000160 d8 53 93 c0 97 69 06 bf 72 87 59 3f f0 6f 94 3e
       -4.603985 -0.5250487 0.849723 0.28991652
000170 53 8a b8 3f 00 bc 0d 3e 5f 37 6b be 0a c7 87 bf
       1.4417213 0.13841248 -0.22970341 -1.0607617
000180 2f 09 f9 bf 8b 9f 37 3f e3 03 92 bf 74 35 aa 3e
       -1.9455928 0.7172782 -1.1407436 0.33243906
000190 0c 01 8f 3f 71 f4 28 bf 36 e8 1e bf a4 d4 2d 3f
       1.1172194 -0.6599799 -0.62073076 0.6790259
0001a0 cb dc 48 bf 02 c9 21 3f ee 1e 8a be 7e 2d 94 3c
       -0.78461903 0.6319734 -0.26976722 0.018088099
0001b0 10 8a 06 3f cc 43 86 be 84 c4 ef 3f 77 90 c9 be
       0.52554417 -0.262236 1.8731847 -0.3936803
0001c0 fd fe 4d 3f 20 fe 87 3e 8d d4 97 3f e9 6d 4e bf
       0.80467206 0.2656107 1.186174 -0.8063646
0001d0 68 72 0e bf ff d8 96 3d 87 71 d6 3f ec c4 01 40
       -0.5564332 0.073656075 1.6753396 2.0276442
0001e0 d6 82 4d be 28 e4 c5 3f 92 91 a1 3e 71 e4 32 3f
       -0.20069441 1.5460253 0.31556374 0.69879824
0001f0 c9 e9 82 bf 20 56 87 bf 67 b7 97 3f 84 07 74 c0
       -1.0227596 -1.0573158 1.1852845 -3.8129587

MobileFaceNet/MobileFaceNet/Conv2d_6_InvResBlock_0/Conv/BatchNorm/cond/FusedBatchNormV3_1 f4 [256]
000000 1a 51 c6 3e 18 31 ea be ed 0a f4 3e ae 4b 31 c0
       0.3873375 -0.4574058 0.47664586 -2.7702441
000010 95 bd 1f 3f b0 9e 90 bf ce 9d 79 c0 3a cf 55 bf
       0.62398654 -1.1298428 -3.9002566 -0.8351933
000020 b9 72 7e 3f 50 49 4b 3f 7b 5e d8 bf ef 7c 37 bd
       0.993938 0.7940874 -1.6903833 -0.04479688
000030 95 e8 d4 bd 57 a8 f6 3d a1 39 c0 bd c9 ca 0f 3f
       -0.10395924 0.12043827 -0.09385992 0.561688
000040 03 b1 21 be de 59 9a bf 41 a7 25 3e 43 ba 07 3f
       -0.15790181 -1.2058675 0.16177084 0.5301859
000050 3e 39 86 be 40 c5 44 be 09 c0 30 3f 0a 8a 4a be
       -0.26215547 -0.1921587 0.6904302 -0.1977922
000060 fb 91 d2 bd 7e 5e 35 bf e6 53 40 bf 4f 7f 37 3f
       -0.1028175 -0.7084731 -0.7512802 0.7167863
000070 53 e1 78 3f 07 cb 88 3f ce ca a2 3f cf 76 5c 3e
       0.9721882 1.0686959 1.2718141 0.21529697
000080 f4 5c cd be 91 63 f2 bd 9f c7 c0 bf 3f 88 84 3f
       -0.4010998 -0.11835397 -1.506092 1.0354079
000090 d5 e3 f3 bf 5a ca e3 be 16 fc 88 3f ac 0b c6 3d
       -1.9053904 -0.4449032 1.070193 0.09670195
0000a0 f1 9c d9 bf 27 65 ff bf 9f 63 69 3e 17 ab 07 bf
       -1.700102 -1.9952744 0.22791909 -0.5299544
0000b0 67 b6 c6 3e f6 22 37 3c fc 91 a0 bf 6c b7 ce 3f
       0.38811037 0.011177769 -1.2544551 1.6149726
0000c0 36 eb 33 be be 0f 5f bf ff 3b ee 3d c6 55 b8 3f
       -0.17570195 -0.87133396 0.11632537 1.4401176
0000d0 85 6a b3 bf e6 cd 03 3e b8 6d 0a 3d 26 31 25 3e
       -1.4016882 0.12871513 0.033796042 0.1613203
0000e0 2a 7e 8d 3e f4 ce 75 3e 14 5e b5 3e e1 f6 86 3f
       0.27635318 0.24004728 0.35423338 1.0544091
0000f0 cf 30 f6 3d e5 98 06 bf a7 a1 3e 3f ab 34 f8 3e
       0.12021028 -0.5257705 0.7446541 0.48477682
000100 e2 18 81 bf 9a c9 f3 be ba 6c b5 bd 05 89 1b bf
       -1.0085719 -0.47614747 -0.088586286 -0.6075595
000110 45 ca 7f bc 98 ba 2e 3f b7 70 3f bf 02 b1 10 c0
       -0.01561219 0.6825347 -0.74781364 -2.2608037
000120 ec 7c e1 3e 79 96 16 3f f1 14 46 3f d3 c3 bf bf
       0.4404062 0.58823353 0.77375704 -1.4981636
000130 4d 4f 8f 3e a0 3e 6a 3f a4 7c d7 bf 81 92 60 be
       0.2799019 0.9150181 -1.6834912 -0.21930887
000140 7a 1b b2 3f f3 b6 84 bf bd 5a 4b 3d 72 b4 cd be
       1.3914635 -1.0368332 0.04964708 -0.4017673
000150 8d 04 15 3f 15 86 56 3f 79 16 00 be 2e da c1 3e
       0.5821007 0.8379834 -0.12508573 0.3786177
000160 a9 6e aa 3f ab a4 c0 bf 68 ce 86 bc 44 7e 67 bf
       1.3315021 -1.5050253 -0.016455844 -0.9042704
000170 aa 20 07 bf 1b 97 3c bf 76 96 aa 3c 6c 12 15 3f
       -0.52784216 -0.7366807 0.020823698 0.58231235
000180 04 e4 32 c0 20 5c 86 be 3e 0e ce be 4c 25 86 3f
       -2.795167 -0.2624216 -0.4024524 1.0480132
000190 15 d6 db be c9 a4 60 3e 00 fe 09 3f 64 1d 61 3f
       -0.4293677 0.2193786 0.539032 0.8793547
0001a0 78 f0 32 bf 0f 35 cc bf 21 f0 41 be 53 23 dd be
       -0.69898176 -1.5953692 -0.18939258 -0.43191013
0001b0 3a 1d 9c 3e 69 8e 4c 3e 6c 7e b9 bf d0 cd 02 be
       0.30491048 0.199762 -1.4491706 -0.12773824
0001c0 4d 3e 5d bd fd 5d 02 40 f3 45 82 3e 99 79 e9 be
       -0.054014493 2.0369866 0.25443992 -0.45600584
0001d0 cd 54 f4 bf 5f 33 65 bf 31 f9 a3 bf a0 16 51 bf
       -1.9088379 -0.8953151 -1.2810422 -0.8167515
0001e0 58 6c 59 3e 66 2a ea 3e d1 ca c2 3f db 33 9f bd
       0.21232736 0.45735472 1.5218145 -0.077735625
0001f0 25 89 78 bf 8e 15 d9 bf 2a 7a 92 be 21 aa 81 be
       -0.97084266 -1.6959703 -0.2860883 -0.2532511
000200 0f cb 5a 3d 0b c3 2b 3e c9 54 e3 bf 6d db 02 bf
       0.053416308 0.16773622 -1.7760249 -0.5111607
000210 5a cf 3f 3f 4f 00 46 be 75 44 e9 be 16 ed 1d be
       0.7492577 -0.19336055 -0.4556004 -0.15422472
000220 38 3a 01 be a2 22 d6 bf 8c 5e a1 bd 62 2a 28 c0
       -0.12619865 -1.6729319 -0.078793615 -2.6275868
000230 6c 61 29 bf 23 2e d2 be 50 6f 04 be 90 3c 9e bf
       -0.6616428 -0.41050825 -0.12933087 -1.2362232
000240 b6 03 a7 bf b4 db b1 3d ad 56 85 bf 58 71 07 be
       -1.3048007 0.08684483 -1.0417076 -0.13226831
000250 4a a6 86 3e e3 6d 8e bf c7 db 12 3e 74 3e e8 bf
       0.26298743 -1.1127285 0.14341651 -1.8144059
000260 92 cd a9 bd b1 a9 c0 be 96 49 b9 bf e6 26 46 3f
       -0.082911626 -0.37629464 -1.4475582 0.77403104
000270 09 6b 9f be 53 de 98 be f9 43 a9 bf 35 b3 6c bf
       -0.3113635 -0.2985712 -1.3223869 -0.9246095
000280 02 6a 97 be b8 cc 95 bf 17 2b 83 bf d5 dd 0e c0
       -0.29573065 -1.17031 -1.0247525 -2.2322896
000290 d5 e3 8f be e3 80 48 bf 34 53 ee bd 37 f8 b9 3e
       -0.2810351 -0.78321666 -0.116369635 0.36322185
0002a0 d2 c5 91 3e 5b bc b6 bf 9f 43 35 c0 e0 7c 18 bf
       0.28471237 -1.4276232 -2.8322523 -0.59565544
0002b0 ff 63 d6 bd 38 35 43 bf 5e 95 d7 bf 69 84 e2 bf
       -0.104682915 -0.7625308 -1.6842458 -1.7696658
0002c0 a6 15 ab 3f b2 6f a0 3f 4f da 69 3f 45 c5 3b 3f
       1.3365982 1.2534087 0.9134874 0.73347884
0002d0 ce 0e 08 c0 96 37 36 3f 2b 57 46 bf 1c fc 4b 3f
       -2.1259036 0.7117857 -0.7747676 0.79681563
0002e0 38 61 f9 3e 7f b6 ab 3e 75 81 9c bf c6 60 7f 3d
       0.48706985 0.3353767 -1.2227007 0.06234815
0002f0 47 16 03 c0 7e 47 99 bf 50 b4 98 3d 9b ab a9 be
       -2.0482347 -1.1974943 0.07456267 -0.33138737
000300 07 7c 2e c0 d2 ce 8b bd f6 50 b1 bf ea cb e2 bf
       -2.72632 -0.06826557 -1.3852832 -1.771848
000310 3d 46 81 bd 37 9d 25 3f b6 f5 05 bf ba b0 6a bf
       -0.06312225 0.64693016 -0.5232805 -0.91675913
000320 3c 1f 74 be b2 90 c9 3c 3e 15 ed bf 9d f3 3e 3c
       -0.2384004 0.024605129 -1.8522108 0.011654762
000330 75 74 6a be ea fe 44 3e 0b 8b 21 bf c7 88 49 be
       -0.22895987 0.19237867 -0.6310279 -0.19681083
000340 4b 7a cd bf 6a 1e 39 3e 5b 31 7e be 4e de cc 3e
       -1.6052946 0.18078008 -0.24823515 0.40013355
000350 90 fd 33 3f 43 73 b3 bf 33 5c 3f 3f 08 42 0c bd
       0.7030878 -1.401955 0.7475006 -0.03424266
000360 af ca 2a bf 63 1e e9 be ab ca c2 be 11 9c 8b bf
       -0.6671552 -0.45530996 -0.38045248 -1.0907003
000370 cd 49 7d 3e 04 ba f1 bd 4a 0e e7 3e f2 c7 78 3e
       0.24735184 -0.11803058 0.4512809 0.24295023
000380 84 9d 27 bf ba 40 63 be 4d 71 b0 bf ca fa 11 c0
       -0.65474725 -0.2219266 -1.3784577 -2.280932
000390 9e 7e 2a 3e 7a 1b 4b c0 15 c0 89 3e 39 04 61 3d
       0.16649863 -3.173552 0.2690436 0.054935668
0003a0 ab 48 7d 3d aa 00 d1 3e 1e 57 40 bf 01 7f 0c 3c
       0.06183688 0.4082082 -0.7513293 0.008575202
0003b0 95 92 f0 bf 3a 27 de be 84 4d c1 3e a2 45 b5 bc
       -1.8794733 -0.43389302 0.37754452 -0.02212793
0003c0 3c dd 89 bd ae a9 1b 3f e2 3a f3 bd 85 4a 3f 3f
       -0.0673165 0.60805786 -0.118764654 0.7472308
0003d0 15 0d 4b be 30 53 36 3e 49 3b d4 3d e0 54 15 3f
       -0.19829209 0.17805171 0.1036287 0.58332634
0003e0 e3 fc 85 3d 98 9b 0a 3e 22 18 b2 bf 34 61 14 be
       0.06542375 0.13535917 -1.3913615 -0.14490205
0003f0 fc e5 8c bf 2d b0 87 be 5e f9 4f bf 90 d3 2e 3f
       -1.1007686 -0.265016 -0.8123988 0.6829157

MobileFaceNet/MobileFaceNet/Conv2d_5_InvResBlock_0/Conv_1/BatchNorm/cond/FusedBatchNormV3_1 f4 [128]
000000 56 44 02 bf f3 0a 43 bf 13 31 ac bf d9 fe ff 3f
       -0.5088552 -0.7618858 -1.3452476 1.9999648
000010 f3 c4 76 40 19 25 bd bf bc ab 84 3f de 0c 1f c0
       3.8557708 -1.4776946 1.0364909 -2.4851604
000020 7d 89 40 bf 6d ab 01 40 0b 82 e0 3f 0f 45 9a 3f
       -0.7520979 2.026088 1.7539686 1.2052325
000030 0f 9f 08 40 b5 1a f8 bf 38 29 85 bf 35 d0 8d 3f
       2.1347082 -1.938315 -1.0403204 1.1079165
000040 84 d8 8f 40 81 48 5c bf 77 45 20 40 d7 ee 33 3e
       4.49518 -0.8604813 2.5042398 0.17571579
000050 1c 54 f4 be 1d a7 33 3f 2f cf 8f 3e 8f 63 e0 3f
       -0.4772042 0.7017687 0.28087756 1.7530383
000060 31 4c 02 c0 2f ac a8 3f 39 55 81 c0 f7 6e 96 be
       -2.0359004 1.3177546 -4.041653 -0.29381534
000070 4c 13 c0 bf 0e ac 32 40 8e bb b1 3f eb b2 fe 3f
       -1.5005889 2.7917514 1.3885362 1.9898351
000080 d1 d3 93 bf 9f 9b a1 c0 c3 6e 07 c0 5a c4 83 40
       -1.1549016 -5.0502467 -2.1161354 4.1177187
000090 60 80 80 3e c7 9d 12 3f ca ef 5c bf 08 0b f5 3f
       0.25097942 0.57272 -0.8630339 1.9143991
0000a0 3f 39 8d 40 40 6a d1 bf ea f4 ac be 17 7a 49 3f
       4.413238 -1.636055 -0.33780605 0.7870192
0000b0 43 81 1f 40 d7 c3 a5 40 d0 5d c9 bf cb c6 75 3f
       2.4922645 5.180156 -1.5731754 0.9600646
0000c0 bc 12 00 c0 f5 87 9e bf e2 18 97 3f c9 99 33 bf
       -2.0011435 -1.2385241 1.1804469 -0.7015653
0000d0 ef 34 17 c0 95 33 a6 3e 3b 01 80 c0 44 0d eb be
       -2.3626058 0.3246123 -4.00015 -0.45908558
0000e0 4f 1a 24 3f ea 7c d6 bf e4 fc eb 3f 9f 57 e8 bf
       0.64102644 -1.6756871 1.8436551 -1.815174
0000f0 21 8c a6 3f fa 01 4a 3f a5 77 ce 3f d2 c7 e9 3f
       1.3011514 0.78909266 1.6130263 1.8264105
000100 cd 7c af be 9e db e6 bf 05 35 1a c0 18 87 15 40
       -0.34274903 -1.8035772 -2.409486 2.3363705
000110 12 fb 32 3f 3e df b7 bf 51 25 01 bf 01 ce d0 3f
       0.6991435 -1.4365003 -0.50447565 1.6312867
000120 3e b6 57 40 da 3b 67 40 d3 f4 e1 3f 77 1d bb bf
       3.3704982 3.613028 1.765284 -1.4618367
000130 e5 75 e6 bf c9 12 c4 3f 42 3f f6 3f a5 91 69 be
       -1.8004729 1.5318233 1.9238055 -0.22809465
000140 d3 7b dd bf 6a c5 f3 3f b2 31 aa 3f d1 e5 f3 bf
       -1.7303413 1.9044621 1.3296416 -1.9054509
000150 77 bf 21 bf 80 79 34 bf b4 d2 61 40 73 14 b7 3e
       -0.6318278 -0.70497894 3.5284853 0.3575779
000160 38 df 24 40 48 b8 c9 3f 66 c0 b2 3f 07 4b 11 c0
       2.5761242 1.5759363 1.3964965 -2.2702043
000170 33 6f 99 bf e2 d7 b3 3f ef e9 9f 3f 14 4d cd 3f
       -1.198706 1.4050257 1.2493266 1.6039147
000180 a0 ba 05 c1 09 7c 94 3e 63 60 e5 bf 53 15 ce 3f
       -8.358063 0.2900088 -1.792004 1.6100258
000190 d0 94 8c bf bf 7c 0b c0 38 04 d1 3f 7d 51 d2 3f
       -1.0982914 -2.179489 1.6329412 1.6431118
0001a0 65 78 e0 bf 31 13 2d 40 7c ae 27 bf d5 ae a2 bf
       -1.7536741 2.7042964 -0.6550062 -1.2709605
0001b0 99 a0 ab 3f 55 6d 94 be b3 1e 32 bf 37 1e f6 3f
       1.3408386 -0.28989664 -0.69578093 1.9227971
0001c0 32 ce 34 c0 94 16 86 40 55 28 47 c0 96 e0 00 3f
       -2.8250852 4.190256 -3.1118367 0.5034269
0001d0 02 ab 5a 40 82 b8 98 be 4f 9a f9 3f 4e 80 a8 3f
       3.4166875 -0.29828268 1.9500216 1.3164155
0001e0 17 df 28 c0 28 f5 a2 3e 9e 4c ed 3e b9 c6 97 c0
       -2.6386163 0.31827664 0.46347517 -4.743008
0001f0 51 f1 89 c0 f4 92 a9 c0 78 31 a9 3e 83 59 0e bf
       -4.3107076 -5.2991886 0.33045554 -0.55605334

MobileFaceNet/MobileFaceNet/Conv2d_5_InvResBlock_0/Conv/BatchNorm/cond/FusedBatchNormV3_1 f4 [512]
000000 81 be 99 be cb 00 38 c0 5a f9 8f c0 ea ae 87 c0
       -0.30028155 -2.8750484 -4.4991884 -4.240102
000010 00 82 a5 c0 94 09 35 c0 87 07 bb 3f 0f 2b 88 c0
       -5.172119 -2.8287096 1.4611672 -4.255256
000020 1e bd 1b c0 65 bd 65 c0 10 51 dd bf f5 f3 d5 bf
       -2.4334178 -3.5896847 -1.7290363 -1.6715075
000030 dc 73 7d c0 cf bc a9 bf 97 37 d3 bf b1 42 9e c0
       -3.9601965 -1.3260745 -1.650134 -4.945641
000040 7b 90 5b c0 85 ee 0c c0 f5 95 5b c0 1f 7b 32 c0
       -3.4306934 -2.202058 -3.4310277 -2.7887647
000050 73 02 71 c0 53 a6 5f c0 3f e6 22 c0 76 9e 75 c0
       -3.7657745 -3.4945266 -2.545303 -3.8377967
000060 33 3e 4d c0 1f df b4 bf 2f 62 0a c0 d7 6a 0f c0
       -3.2069213 -1.4130591 -2.1622427 -2.240896
000070 8a 0f 8e bf 0d 67 57 c0 9f 21 f6 bf 51 de 06 c0
       -1.1098492 -3.3656647 -1.922901 -2.107319
000080 66 18 81 c0 3c 34 78 c0 ac 8c c1 be dc bd 49 c0
       -4.0342283 -3.8781881 -0.37802637 -3.152213
000090 39 72 44 c0 5c c6 c0 c0 06 59 98 c0 1a 54 47 c0
       -3.0694716 -6.024214 -4.760867 -3.1145082
0000a0 bb be 44 c0 86 4d 7d c0 84 6c 63 bf fa 83 32 c0
       -3.0741413 -3.9578567 -0.88837457 -2.7893052
0000b0 00 90 8a bf 9b 1e da bf 7e 01 36 c0 79 ec 02 bf
       -1.0825195 -1.704059 -2.843841 -0.5114208
0000c0 ca 6d 51 c0 a2 31 05 c0 dc 7d 29 c0 b7 f6 89 c0
       -3.272326 -2.0811543 -2.6483068 -4.3113666
0000d0 1d c6 a8 c0 14 df 27 c0 d1 58 25 c0 2d ef 2d c0
       -5.2741838 -2.6229906 -2.583546 -2.7177231
0000e0 de b4 83 c0 f5 e0 6b c0 13 e0 41 c0 61 ef 39 c0
       -4.1158285 -3.6856053 -3.0293014 -2.9052355
0000f0 12 53 19 c0 b5 64 93 c0 65 4b c7 bf e5 dc 0a c0
       -2.3956952 -4.6060433 -1.5569884 -2.1697323
000100 ec 34 7f c0 46 5d e0 bf 05 dd 95 c0 e2 39 87 c0
       -3.987605 -1.7528465 -4.68323 -4.225816
000110 41 67 38 c0 07 59 9d bf 5d 1a 80 c0 56 bd 99 3e
       -2.881302 -1.2292794 -4.003218 0.30027264
000120 d8 86 af bf eb 57 41 c0 e1 0b 5c c0 26 9d 5e c0
       -1.3713026 -3.020991 -3.438225 -3.4783416
000130 78 5c 6e bf f1 a0 03 c0 ed 85 5b c0 02 ac 79 c0
       -0.93109846 -2.056698 -3.4300492 -3.9011235
000140 25 9f 3f bf c7 c3 80 c0 db 15 82 3f 06 13 52 c0
       -0.7485221 -4.0238986 1.016292 -3.282411
000150 51 27 8c bf c3 3e 34 c0 8e 1a 8b c0 b3 bf 80 c0
       -1.0949498 -2.8163307 -4.3469915 -4.023401
000160 be 6c 55 c0 f0 05 0b c0 b3 ee 0f c0 11 92 40 c0
       -3.334762 -2.1722374 -2.248944 -3.0089152
000170 d9 ab 7b bf 82 67 41 c0 3d fb 49 bf 79 f8 8d c0
       -0.98309094 -3.0219426 -0.78898984 -4.436581
000180 c7 2d 45 c0 76 9d 28 c0 40 f9 45 c0 08 88 53 c0
       -3.080919 -2.6346107 -3.093338 -3.3051777
000190 99 35 5e c0 68 f7 20 c0 70 4e 6e 3f e1 38 6a c0
       -3.4720213 -2.5151005 0.93088436 -3.6597216
0001a0 63 00 46 bf ca 90 d3 bf 85 c6 12 bf 93 e5 a3 c0
       -0.7734434 -1.6528561 -0.57334167 -5.121774
0001b0 c9 6e 93 bf 07 ab 43 c0 26 75 41 bf 84 5c 3d c0
       -1.1518184 -3.0573137 -0.7556938 -2.9587717
0001c0 57 12 59 c0 e6 ca 3b c0 22 83 36 c0 44 17 0c c0
       -3.3917444 -2.934259 -2.8517537 -2.18892
0001d0 ee 96 82 c0 e2 cb 43 c0 5f d0 54 c0 d4 77 36 c0
       -4.080924 -3.059319 -3.325218 -2.8510637
0001e0 22 32 73 c0 82 be 0d c0 c5 05 df bf 32 18 35 c0
       -3.7999349 -2.2147527 -1.7423636 -2.8296018
0001f0 80 19 90 bf b2 82 8e c0 59 1e 71 c0 97 26 5a c0
       -1.1257782 -4.453454 -3.7674773 -3.4086053
000200 f8 b5 54 c0 7a de 6c c0 1f 5a 69 bf da 3e 16 bf
       -3.3236065 -3.701079 -0.9115314 -0.58689654
000210 a7 44 53 c0 12 3f 83 c0 15 48 7a c0 6d be 96 c0
       -3.3010652 -4.101449 -3.9106495 -4.7107453
000220 3f 0e 55 bf 59 23 51 c0 98 b5 85 c0 7b eb 0c c0
       -0.8322486 -3.2677824 -4.178417 -2.2018726
000230 ad 64 3e c0 c6 c5 72 c0 07 ed 44 c0 63 07 05 bf
       -2.9748948 -3.7933211 -3.076967 -0.51964396
000240 87 f3 94 c0 8f 13 b6 bf 90 c0 0b c0 4c 00 ae bf
       -4.6547275 -1.4224719 -2.183628 -1.3593841
000250 cc 5b 22 c0 6c b3 81 c0 3c 54 c7 bf 40 89 47 c0
       -2.5368528 -4.053152 -1.5572581 -3.117752
000260 2f 41 0a c0 6d 40 14 c0 52 81 2a bf e9 ab 88 bf
       -2.1602285 -2.3164322 -0.6660358 -1.0677463
000270 60 63 28 c0 2b 4a 4d c0 2c 77 79 c0 51 74 2e c0
       -2.6310654 -3.2076519 -3.8978987 -2.7258494
000280 2d 63 71 c0 60 58 88 bf ea 1d 94 be 50 83 69 c0
       -3.7716782 -1.065197 -0.28929073 -3.6486397
000290 de 20 a9 bf 8f 9a 4f c0 11 11 cf bf 6b be 4e c0
       -1.3213155 -3.2438085 -1.6177083 -3.2303722
0002a0 43 34 70 c0 2d 6a 85 c0 4a 70 81 c0 0d 53 72 c0
       -3.7531898 -4.169211 -4.044957 -3.786319
0002b0 69 20 0b c0 c0 52 5c bf 3b 90 4b c0 91 13 64 c0
       -2.1738532 -0.86063766 -3.1806781 -3.5636942
0002c0 1b 7d 64 c0 09 21 5c c0 7b 47 91 c0 0f 3c 4b c0
       -3.5701358 -3.4395163 -4.5399756 -3.1755407
0002d0 94 32 ad bf 76 43 1a c0 41 41 d6 3e 64 c7 53 c0
       -1.353106 -2.4103675 0.4184666 -3.3090448
0002e0 a8 16 cf bf 4d 90 a4 c0 10 d5 0c bf 9e 3a 87 bf
       -1.6178789 -5.142615 -0.5501261 -1.0564764
0002f0 d0 ae d1 bf 00 42 46 c0 5a b5 ea bf 91 33 49 c0
       -1.6381474 -3.0977783 -1.8336594 -3.1437724
000300 f4 35 45 c0 1c ab 8c c0 5c 33 43 c0 01 1b 8b c0
       -3.081418 -4.3958874 -3.0500097 -4.3470464
000310 70 99 00 c0 04 2c fb bf 6e 2a d4 bf 9f be ff bf
       -2.009365 -1.9622808 -1.6575449 -1.9980048
000320 5d c5 5c c0 f5 9d 47 be 22 ad 40 bf 19 91 fc be
       -3.449546 -0.1949385 -0.7526418 -0.4932945
000330 c7 bc 1e c0 4e 6f f6 be 7d c2 30 c0 20 65 45 c0
       -2.480272 -0.48131794 -2.7618706 -3.0842972
000340 e0 51 a2 c0 29 56 1f be fc be 3c c0 0a 95 49 c0
       -5.0724945 -0.15560211 -2.9491568 -3.1497216
000350 3a 5c 20 c0 10 3f 06 c0 7c 9f da be ba a5 92 c0
       -2.505629 -2.097599 -0.42699802 -4.5827303
000360 25 d0 e2 bf f8 67 d6 bf 85 dd 05 c0 2e 37 99 c0
       -1.7719771 -1.6750479 -2.0916455 -4.787986
000370 c2 06 6b c0 2c f9 4d c0 c9 17 0b c0 d5 cd 21 c0
       -3.6722875 -3.2183332 -2.1733267 -2.528188
000380 1f ca f2 bf 3c 57 a2 c0 18 f7 4a c0 0f 3a 03 3e
       -1.8967932 -5.0731487 -3.1713314 0.12815116
000390 81 22 df be a9 fd 58 c0 07 4b a0 bf 48 b2 5d c0
       -0.43581012 -3.3904822 -1.2522897 -3.4640064
0003a0 6f 14 18 c0 f2 2c 33 c0 ee 7e db bf 1f cc 82 c0
       -2.3762472 -2.7996182 -1.7148111 -4.087417
0003b0 f2 dc 87 c0 93 c4 6d c0 5f f3 1a c0 79 05 55 c0
       -4.245721 -3.715123 -2.4211042 -3.328459
0003c0 e9 ff bc bf 57 14 cc bf e7 2a 68 c0 18 fe 71 c0
       -1.4765598 -1.5943707 -3.6276186 -3.7811337
0003d0 08 9f 49 c0 7a b6 a4 bf ed 9f 99 bf cb d2 41 c0
       -3.1503315 -1.2868187 -1.200193 -3.0284908
0003e0 f4 0f 7a c0 da 27 9e 3f 0e e0 40 c0 17 bd a2 c0
       -3.9072237 1.2355912 -3.0136752 -5.0855823
0003f0 ae 6e 5b c0 8f 99 0b bf ea 47 83 c0 87 d0 a3 c0
       -3.4286304 -0.54531187 -4.1025286 -5.119205
